…
reference "sec:Introduction"

\end_inset

) the experiments can have collection rates of 80 GB/s.
 The data rates, though more modest than those observed at the LHC, combined
 with the runtime of the fitting procedure, merit exploring the same low
 latency approach in order to enable experimental modalities that depend
 on measurement-based feedback (i.e., experiment steering).
 
\begin_inset listings
lstparams "language=Python,float,fontsize={\footnotesize},escapeinside={||},mathescape=true"
inline false
status collapsed

\begin_layout Plain Layout

BraggNN(
\end_layout

\begin_layout Plain Layout

  (cnn_layers_1): Conv2d(|$k 
\backslash
times 16 $|, kernel=3, stride=1)
\end_layout

\begin_layout Plain Layout

  (nlb): NLB(
\end_layout

\begin_layout Plain Layout

    (theta_layer): Conv2d(|$k 
\backslash
times 16 $|, |$k 
\backslash
times 8 $|, kernel=1, stride=1)
\end_layout

\begin_layout Plain Layout

    (phi_layer): Conv2d(|$k 
\backslash
times 16 $|, |$k 
\backslash
times 8 $|, kernel=1, stride=1)
\end_layout

\begin_layout Plain Layout

    (g_layer): Conv2d(|$k 
\backslash
times 16 $|, |$k 
\backslash
times 8 $|, kernel=1, stride=1)
\end_layout

\begin_layout Plain Layout

    (out_cnn): Conv2d(|$k 
\backslash
times 8 $|, |$k 
\backslash
times 16 $|, kernel=1, stride=1)
\end_layout

\begin_layout Plain Layout

    (soft): Softmax()
\end_layout

\begin_layout Plain Layout

  )
\end_layout

\begin_layout Plain Layout

  (cnn_layers_2): Sequential(
\end_layout

\begin_layout Plain Layout

    (0): ReLU()
\end_layout

\begin_layout Plain Layout

    (1): Conv2d(|$k 
\backslash
times 16 $|, |$k 
\backslash
times 8 $|, kernel=3, stride=1)
\end_layout

\begin_layout Plain Layout

    (2): ReLU()
\end_layout

\begin_layout Plain Layout

    (3): Conv2d(|$k 
\backslash
times 8 $|, |$k 
\backslash
times 2 $|, kernel=3, stride=1)
\end_layout

\begin_layout Plain Layout

    (4): ReLU()
\end_layout

\begin_layout Plain Layout

  )
\end_layout

\begin_layout Plain Layout

  (dense_layers): Sequential(
\end_layout

\begin_layout Plain Layout

    (0): Linear(in_features=|$k 
\backslash
times 50$|, out_features=|$k 
\backslash
times 16 $|)
\end_layout

\begin_layout Plain Layout

    (1): ReLU()
\end_layout

\begin_layout Plain Layout

    (2): Linear(in_features=|$k 
\backslash
times 16 $|, out_features=|$k 
\backslash
times 8 $|)
\end_layout

\begin_layout Plain Layout

    (3): ReLU()
\end_layout

\begin_layout Plain Layout

    (4): Linear(in_features=|$k 
\backslash
times 8 $|, out_features=|$k 
\backslash
times 4 $|)
\end_layout

\begin_layout Plain Layout

    (5): ReLU()
\end_layout

\begin_layout Plain Layout

    (6): Linear(in_features=|$k 
\backslash
times 4 $|, out_features=2)
\end_layout

\begin_layout Plain Layout

    (7): ReLU()
\end_layout

\begin_layout Plain Layout

  )
\end_layout

\begin_layout Plain Layout

)
\begin_inset Caption Standard

\begin_layout Plain Layout

\family typewriter
BraggNN
\family default
 for 
\begin_inset Formula $k=1,\dots,4$
\end_inset

.
\begin_inset CommandInset label
LatexCommand label
…
